post-hoc-cbm-main/output/pcbm_my_dataset__resnet18_cub__my_dataset_resnet18_cub_0__lam:1e-05__alpha:0.99__seed:42.ckpt (torch, 32101 bytes, 5 tensors)

weight f4 [9, 13]
0	0xc090fb65	-4.530688
1	0x409146e8	4.5399055
2	0xc1e27322	-28.306217
3	0x41e27313	28.306189
4	0x41c29ad7	24.325605
5	0xc1c279ef	-24.309538
6	0xc1b6f2d4	-22.868568
7	0x41b6f512	22.869663
8	0xc090fb65	-4.530688
9	0x4232fb57	44.74545
10	0x42872b91	67.58509
11	0xc1c279ef	-24.309538
12	0x41c29ad7	24.325605
13	0xc1b8b1bc	-23.086784
14	0x41b86893	23.051062
15	0xc1e68ef0	-28.819794
16	0x41e68e46	28.81947
17	0x41090964	8.564793
18	0xc108f59c	-8.559963
19	0x43041024	132.06305
20	0xc3040baa	-132.04556
21	0xc1b8b1bc	-23.086784
22	0x432552ce	165.32346
23	0x42c8d886	100.4229
24	0xc108f59c	-8.559963
25	0x41090964	8.564793
26	0xc23c8d14	-47.13777
27	0x423c7a83	47.11964
28	0x42c66a85	99.208046
29	0xc2c66aae	-99.20836
30	0xc15a76bc	-13.653988
31	0x415a3f8f	13.640517
32	0x421886bd	38.13158
33	0xc2185907	-38.08694
34	0xc23c8d14	-47.13777
35	0x42db2c61	109.58668
36	0x431eb878	158.72058
37	0x415a3f8f	13.640517
38	0xc15a76bc	-13.653988
39	0xc2a0de94	-80.43472
40	0x42a0eef6	80.46672
41	0xc2888e6f	-68.27819
42	0x42888e3d	68.27781
43	0x4269d5e2	58.45887
44	0xc26972d7	-58.36215
45	0xc18fe4b8	-17.98668
46	0x41900193	18.000769
47	0xc2a0de94	-80.43472
48	0xbe021470	-0.12703109
49	0x43178ca7	151.54942
50	0xc26972d7	-58.36215
51	0x4269d5e2	58.45887
52	0xc1b6aff2	-22.83591
53	0x41b5ab35	22.708597
54	0xc2c0b33d	-96.350075
55	0x42c0b250	96.34827
56	0x41a063b5	20.048685
57	0xc1a01f46	-20.01527
58	0x42f628e7	123.07989
59	0xc2f606b3	-123.013084
60	0xc1b6aff2	-22.83591
61	0xc17ac3b6	-15.672781
62	0x42059cc5	33.403095
63	0xc1a01f46	-20.01527
64	0x41a063b5	20.048685
65	0xc24dbc45	-51.433857
66	0x424d5295	51.330647
67	0xc24a527f	-50.580563
68	0x424a51c7	50.57986
69	0x42608d2d	56.137867
70	0xc25f36e8	-55.80362
71	0x4273de58	60.967133
72	0xc273cc6f	-60.949642
73	0xc24dbc45	-51.433857
74	0x42b01a36	88.05119
75	0x429cd744	78.42044
76	0xc25f36e8	-55.80362
77	0x42608d2d	56.137867
78	0xc1ee8019	-29.812548
79	0x41ee3328	29.774979
80	0xc26dcd0f	-59.450253
81	0x426dcced	59.450123
82	0x423c356b	47.052166
83	0xc23ca14b	-47.157513
84	0x42c0ecb5	96.46232
85	0xc2c0e247	-96.44195
86	0xc1ee8019	-29.812548
87	0x41fae3c0	31.361206
88	0x40058162	2.086022
89	0xc23ca14b	-47.157513
90	0x423c356b	47.052166
91	0x4193393a	18.402943
92	0xc19357ab	-18.417807
93	0xc2da092b	-109.01791
94	0x42da0957	109.01824
95	0xbfe34ca6	-1.7757766
96	0x3fdfd108	1.7485666
97	0x41e53bcc	28.654198
98	0xc1e53850	-28.652496
99	0x4193393a	18.402943
100	0x43177e54	151.49347
101	0x42835042	65.65675
102	0x3fdfd108	1.7485666
103	0xbfe34ca6	-1.7757766
104	0x427b3dea	62.810463
105	0xc27b81e2	-62.87684
106	0xc24013ee	-48.019463
107	0x42401317	48.018642
108	0xc183ba84	-16.466072
109	0x41847db5	16.56138
110	0x43416b6b	193.4196
111	0xc34167ef	-193.40599
112	0x427b3dea	62.810463
113	0xc32d7530	-173.45776
114	0x43168400	150.51562
115	0x41847db5	16.56138
116	0xc183ba84	-16.466072

bias f4 [9]
0	0xc1d55e45	-26.67103
1	0xc30571a5	-133.44392
2	0xc34a31a7	-202.19395
3	0xc2c34ba0	-97.647705
4	0xc328450b	-168.2697
5	0xc30fe914	-143.91046
6	0xc29fce14	-79.9025
7	0xc278b4ea	-62.176674
8	0xc313ea69	-147.91566

cavs f4 [13, 512]
0	0xbc474445	-0.012162273
1	0xb914ea2e	-0.00014201619
2	0xbca61c24	-0.02027709
3	0x3a2eea38	0.00066724746
4	0x3c04a1fc	0.008095261
5	0x3c2ae9db	0.010431732
6	0x3d3fb4eb	0.046803396
7	0xbcfa7414	-0.030572928
8	0x3652810e	3.1367558e-06
9	0x3b9711b7	0.004610266
10	0xbbaf669f	-0.0053528096
11	0xbb974478	-0.0046163164
12	0x3ae576fa	0.0017506771
13	0x3b94b8ef	0.0045386474
14	0x3c8395e3	0.016062682
15	0xbc3ec0c7	-0.011642641
16	0xbb4f7188	-0.0031653363
17	0x3b30a6fb	0.0026954997
18	0xbc9eebe5	-0.019399593
19	0x3c0afb59	0.0084827775
20	0x3bba7c92	0.0056911195
21	0xbacbf100	-0.0015559494
22	0x3a3bc491	0.00071627746
23	0x3c7209b0	0.0147728175
24	0xbc6d0f1a	-0.0144689325
25	0xb9480fdd	-0.00019079396
26	0x3d037301	0.0320921
27	0xbcb2a480	-0.021806955
28	0x3a9025a8	0.001099755
29	0xbbcb551e	-0.006205215
30	0x3aac3d22	0.0013140778
31	0xbb422f79	-0.0029630347
32	0x3b97c39c	0.0046314728
33	0x3bc908d7	0.006135087
34	0xb814c43c	-3.5468707e-05
35	0xbb88e320	-0.004177466
36	0xbce0e32d	-0.027452076
37	0x3b803ed4	0.0039137397
38	0xbbde1670	-0.006777577
39	0x3b2e7084	0.0026617358
40	0x3cc8e1c6	0.02452172
41	0xbc05e9c1	-0.008173407
42	0x3ad01b7c	0.0015877332
43	0x3c1f518c	0.009724032
44	0xb9c66282	-0.00037838897
45	0x3b5f15ef	0.0034040173
46	0x3c81b2e4	0.015832372
47	0x3bdfa483	0.0068250312
48	0x3b9f28bb	0.0048571504
49	0xbaec32a4	-0.0018020463
50	0xba4c5a88	-0.00077954726
51	0x3c45e2e5	0.012078022
52	0xbc8848e7	-0.016636325
53	0xba15d8b2	-0.0005716189
54	0x3c2aaea6	0.010417616
55	0x3a8df8b1	0.0010831562
56	0x3b63dfc7	0.0034770833
57	0xbd15ab65	-0.036540408
58	0x3a45dd77	0.00075479544
59	0x3c79c4ee	0.015244706
60	0x3afd67ba	0.0019333281
61	0x3c6bf435	0.014401485
62	0x3a62cabf	0.00086514273
63	0x3c52e1c9	0.012871214
64	0x3c7bf79d	0.01537886
65	0x3b60398c	0.0034213988
66	0xbaa18260	-0.001232218
67	0x3b643745	0.0034822982
68	0x3b197284	0.0023414204
69	0x3c40f858	0.01177796
70	0xb8413173	-4.606084e-05
71	0xbc8156ab	-0.015788397
72	0x3c1bc295	0.009506841
73	0xbbe453d7	-0.0069680023
74	0xbb309c28	-0.0026948545
75	0x3c876ce2	0.016531412
76	0xbc4b27da	-0.012399638
77	0xba0d3fdb	-0.00053882384
78	0xbd1b0232	-0.03784389
79	0xbc9df728	-0.019282892
80	0x3b70d7df	0.0036749763
81	0xb92f6338	-0.00016726262
82	0x3afcf032	0.0019297658
83	0x3caf481a	0.021396685
84	0xbcb43622	-0.021998469
85	0x3a7be210	0.0009608576
86	0xbba44bbf	-0.0050139125
87	0xbd0cdd46	-0.03439071
88	0x3c92f0b6	0.017937046
89	0x39bc49ef	0.0003591324
90	0x3cba08c5	0.02270926
91	0xba7c60c7	-0.0009627458
92	0xbc5023ff	-0.012703895
93	0x3c46effc	0.012142178
94	0x3a61d233	0.0008614391
95	0xb98b6ac4	-0.00026591693
96	0x3d13f3a4	0.036121026
97	0x3a7c339c	0.00096207275
98	0x3d1d3e5e	0.038389556
99	0x3cd66007	0.026168836
100	0xbc029cfa	-0.007971996
101	0x3acb4b91	0.0015510191
102	0xbc7aa73f	-0.015298664
103	0x3b1d799d	0.0024028786
104	0xbb2266f9	-0.0024780615
105	0xbcc264c9	-0.023729699
106	0xb9b468ea	-0.00034410442
107	0xbd10293f	-0.035195585
108	0xbb1caf1f	-0.0023908091
109	0xba160523	-0.00057228113
110	0x3bbccc85	0.0057616853
111	0x3d1e606c	0.038666174
112	0xbc4bc8db	-0.012438024
113	0xb9f28eaa	-0.0004626413
114	0x389f06fe	7.583013e-05
115	0xbbf062f2	-0.007336014
116	0x3c1c9613	0.009557265
117	0xbb870f50	-0.0041216984
118	0x3c4069fc	0.011744019
119	0x3cb6b05d	0.022300893
120	0xbba7c6b4	-0.005120123
121	0xbc0deb75	-0.008662094
122	0xbc826f9e	-0.015922364
123	0x3aa165e5	0.0012313692
124	0x3afeded1	0.0019445067
125	0x3d01d666	0.031698607
126	0xbc9d836d	-0.019227708
127	0xbb12271d	-0.0022301145
128	0x3c26d4de	0.010182587
129	0x3b8f23e6	0.004368293
130	0xbb1d5893	-0.0024009093
131	0xbc97cff8	-0.018531784
132	0xbba99bad	-0.0051760287
133	0x3b2ba208	0.0026189107
134	0x3c7f05a4	0.01556531
135	0xbbd0e73c	-0.0063752215
136	0x3b1fedf1	0.0024403299
137	0x3abd5521	0.0014444926
138	0xbc12530d	-0.008930934
139	0xbb0f3361	-0.0021850693
140	0xba272703	-0.00063763576
141	0xbbb70d00	-0.0055862665
142	0xbc6c9d28	-0.014441766
143	0x39874de2	0.00025807234
144	0xbb53b898	-0.0032306071
145	0x3baf1c1e	0.005343928
146	0x3c71c79d	0.014757064
147	0xbcae4519	-0.021273183
148	0xbcd6d361	-0.02622384
149	0xbda3336c	-0.07968792
150	0x3c20c26e	0.009811981
151	0x3b6a9de7	0.0035799684
152	0xbbd4884f	-0.006485976
153	0x3ba9aa04	0.005177738
154	0x3b9ecbff	0.0048460956
155	0xbc3d7d21	-0.011565478
156	0xbc17bb17	-0.009260914
157	0xba995f45	-0.0011701366
158	0xbabf802b	-0.0014610341
159	0x3befd37f	0.0073189135
160	0xbb02dbba	-0.0019967393
161	0xbca6a540	-0.02034247
162	0x3b40f370	0.0029441975
163	0x3c50cdc4	0.012744371
164	0x3c2d53ff	0.010579108
165	0xbc994bb2	-0.018712852
166	0xbca6dc55	-0.020368734
167	0xbb42a7d9	-0.0029702096
168	0xbca90329	-0.02063139
169	0xbc2c28d5	-0.010507782
170	0x3bcb280d	0.006199843
171	0x3affa9aa	0.001950552
172	0x3bdc7725	0.0067280703
173	0x3c001de2	0.007819625
174	0xba579b2e	-0.00082247227
175	0xbcf1f322	-0.02953488
176	0x3bd797b1	0.0065793623
177	0x398d7c03	0.00026986012
178	0x3bb25894	0.0054426882
179	0x3bf5b301	0.0074981456
180	0xbc54a061	-0.01297769
181	0xbc4fdbd4	-0.012686688
182	0x3bb4c854	0.005517045
183	0x3b47de2c	0.0030497415
184	0x3bf9a26b	0.0076182387
185	0xbaa00b17	-0.0012210336
186	0x3bb5e1a3	0.0055505796
187	0x3a2cfbc4	0.00065987953
188	0xbc9f6873	-0.019458985
189	0x3b177a54	0.0023113685
190	0x3b8192e7	0.0039542797
191	0x3b807eda	0.003921372
192	0x3cb13afe	0.021634575
193	0x3c111703	0.008855584
194	0x3c261a4a	0.010138104
195	0x3c05d662	0.008168789
196	0xbc8aaa94	-0.016927041
197	0x3c39468a	0.011308322
198	0x3b1cbdcd	0.002391684
199	0x3c2f741a	0.010708833
200	0x39da1687	0.00041596984
201	0xbbedcc8f	-0.0072570513
202	0x39ebe80f	0.0004499559
203	0x3a10f67f	0.0005529895
204	0xbb889e8a	-0.00416929
205	0xbd691235	-0.05690213
206	0xbc254c59	-0.0100890035
207	0x3bd5ed5b	0.006528539
208	0xbc25be4a	-0.010116169
209	0x3b08631d	0.002081103
210	0x3d0cb7cb	0.034354966
211	0x39c96592	0.00038413383
212	0xbb94681a	-0.0045290114
213	0x3c2d1b83	0.010565641
214	0x3b85b77b	0.0040807105
215	0x3b7dd29d	0.0038730272
216	0xbbcedc35	-0.006312872
217	0x3d0a97fd	0.033836354
218	0x398e274c	0.0002711363
219	0xba0d1614	-0.0005382013
220	0xbc722be9	-0.014780977
221	0xbcc8d613	-0.024516141
222	0x3b222aed	0.0024744824
223	0xba3710b7	-0.00069833867
224	0xbc745965	-0.014913891
225	0x3cba37ee	0.022731747
226	0x3b2d2337	0.0026418695
227	0xbbaaf302	-0.005216957
228	0x3c3c32ef	0.011486753
229	0xbcfa4024	-0.030548163
230	0x3ae9ff7a	0.0017852627
231	0xbbb0e740	-0.005398661
232	0x3bf74f2e	0.0075472808
233	0x3c190f37	0.009342006
234	0x3b51b6d2	0.0031999839
235	0x3c39800d	0.011322034
236	0xbb98051b	-0.0046392805
237	0x3b3b87a3	0.0028614781
238	0x3af6dbd1	0.0018833821
239	0x3bbab66a	0.005698015
240	0x3caf3bf8	0.0213909
241	0xbd56cf57	-0.05244383
242	0xbc84a07d	-0.016189808
243	0x3c4a8ce1	0.01236269
244	0xbbb115a9	-0.0054041934
245	0x3c41fdf2	0.01184033
246	0x3a14e35c	0.0005679631
247	0x3bceccfb	0.0063110567
248	0x3a8e2f5e	0.0010847857
249	0xbc66f106	-0.01409555
250	0x3b9fa9dc	0.0048725437
251	0x3c540007	0.01293946
252	0xbcab3e23	-0.020903653
253	0x3b7c4dd7	0.0038498545
254	0x3cd1b1c1	0.025597455
255	0x3ba2f397	0.004972886

intercepts f4 [13, 1]
0	0x3ee37b54	0.4443003
1	0xbee38d6f	-0.44443843
2	0x3f89484a	1.0725186
3	0xbf8947c0	-1.0725021
4	0xbf30bfbc	-0.69042563
5	0x3f30bbd9	0.6903663
6	0x3f8c8bce	1.0980165
7	0xbf8c8624	-1.0978436
8	0x3ee37b54	0.4443003
9	0x3f336611	0.70077616
10	0xbf525a03	-0.82168597
11	0x3f30bbd9	0.6903663
12	0xbf30bfbc	-0.69042563

norms f4 [13, 1]
0	0x3eab6792	0.33477455
1	0x3eab5d0e	0.33469433
2	0x3eb33335	0.35000005
3	0x3eb3327b	0.3499945
4	0x3ea640a8	0.32471204
5	0x3ea651a8	0.32484174
6	0x3ed3d95c	0.4137677
7	0x3ed3cf0b	0.413689
8	0x3eab6792	0.33477455
9	0x3ef153a1	0.47134116
10	0x3e9755a0	0.29557514
11	0x3ea651a8	0.32484174
12	0x3ea640a8	0.32471204
